checkpoint.pth (torch_old, 28395 bytes, 6 tensors)

fc1.weight f4 [64, 37]
0	0x3e3aa520	0.18227053
1	0xbd19e7e3	-0.03757466
2	0xbe542de1	-0.20720626
3	0xbe0ed2ee	-0.13947651
4	0xbea19ad7	-0.31563446
5	0x3e25a91c	0.16177791
6	0xbe113ddc	-0.14183754
7	0x3e018296	0.12647471
8	0x3e282ce0	0.16423368
9	0xbe59f4bf	-0.2128477
10	0xbdf749a0	-0.1207459
11	0xbca3930c	-0.019967578
12	0x3cca39d3	0.024685776
13	0xbe06db79	-0.1316966
14	0x3c85c173	0.016327595
15	0x3e37292c	0.178868
16	0x3e2b9de0	0.16759443
17	0xbe1a40b7	-0.15063749
18	0xbde443cc	-0.11145744
19	0xbeb33585	-0.3500177
20	0xbcf634fd	-0.030054564
21	0x3e0e39e8	0.13889277
22	0xbc3d060f	-0.011537089
23	0x3e98fc74	0.29880106
24	0x3e192482	0.14955333
25	0xbdbc6f12	-0.092008725
26	0x3e924efb	0.28575882
27	0xbd792dbc	-0.06083463
28	0xbd6f2b40	-0.058390856
29	0x3e2fb127	0.17157422
30	0xbe3d2d24	-0.18474251
31	0x3e24824c	0.1606533
32	0x3e355c26	0.17710933
33	0xbe18fdbb	-0.1494054
34	0x3dcc28ac	0.09968695
35	0xbe2b12d8	-0.16706407
36	0xbce17e1b	-0.027525952
37	0x3e9d9a17	0.30781624
38	0xbd515e01	-0.05111504
39	0xbd3f5e3b	-0.046720725
40	0x3e34ca1b	0.17655222
41	0x3b4ffa9d	0.003173507
42	0x3dd67af4	0.1047267
43	0xbea25e76	-0.31712693
44	0xbe384932	-0.17996672
45	0xbdc3ecdf	-0.09566664
46	0xbedc862f	-0.43071124
47	0x3e00a269	0.12561955
48	0x3c1eb52b	0.0096867485
49	0xbdf1eb26	-0.11812429
50	0x3c97c75d	0.018527681
51	0x3e49e4b1	0.19716145
52	0x3d463019	0.048385713
53	0x3e225218	0.15851629
54	0x3c96101a	0.018318225
55	0xbe06b024	-0.1315313
56	0xbd2e0469	-0.042484675
57	0xb97ee42d	-0.0002430833
58	0xbe3731ef	-0.17890142
59	0xbdf79f65	-0.12090949
60	0xbd8900d6	-0.066896126
61	0x3c2f7fb2	0.010711597
62	0x3c8112ad	0.015755976
63	0x3c681931	0.014166162
64	0x3d445ca7	0.047939923
65	0xbe4eb5e9	-0.2018658
66	0x3d822611	0.06354917
67	0x3cb1cc02	0.021703724
68	0x3e3baa1f	0.18326615
69	0x3e095e59	0.13414897
70	0xbe86563b	-0.26237664
71	0xbda25760	-0.07926822
72	0x3e1a8630	0.15090251
73	0x3d24b662	0.040212996
74	0x3cf9cc20	0.030492842
75	0x3ea3725d	0.3192319
76	0x3ddd3593	0.10801234
77	0xbeb5617f	-0.35425946
78	0xbdc4a44b	-0.09601649
79	0xbee21f9c	-0.4416474
80	0x3d76ef8b	0.06028704
81	0x3e771809	0.24130262
82	0x3d4a76d1	0.04942972
83	0xbe0985e4	-0.13429981
84	0x3c98b194	0.018639363
85	0xbce5d3b5	-0.028055051
86	0x3d9c9912	0.07646383
87	0x3de0970d	0.10966311
88	0x3e53f211	0.2069781
89	0xbe9f5f8b	-0.3112758
90	0x3e80f33c	0.25185573
91	0x3e0adc5f	0.13560627
92	0x3e286fd5	0.1644891
93	0xbe1c4a2c	-0.1526267
94	0x3ca8b7f2	0.020595524
95	0xbdb54603	-0.08851244
96	0x3d33ea7e	0.0439248
97	0x3dbce1ec	0.09222779
98	0x3dfd49e2	0.12367608
99	0xbe562900	-0.20914078
100	0x3e8aeed1	0.27135327
101	0x3ddbd097	0.10733145
102	0xbddcc041	-0.10778857
103	0xbc70c52e	-0.014695449
104	0x3d6aeac6	0.057352804
105	0xbe0c104a	-0.13678089
106	0xbbdc8d5d	-0.006730719
107	0xbdf68f52	-0.12039055
108	0xbc3903a0	-0.011292368
109	0x3b818825	0.0039529973
110	0xbcc9485e	-0.02457064
111	0x3b30188d	0.0026870102
112	0xbe296b3f	-0.16544817
113	0x3e5580ba	0.20849887
114	0x3c686b69	0.014185765
115	0xbe7510af	-0.23932146
116	0xbe10bb20	-0.14133883
117	0xbce34078	-0.027740702
118	0xbbd92e1c	-0.006627811
119	0x3e2df0f5	0.16986449
120	0xbdac5652	-0.08414902
121	0xbc685e11	-0.014182583
122	0x3d3964a4	0.045261994
123	0xbddd13fc	-0.10794827
124	0xbdbe0c6e	-0.092797145
125	0xbe7cb8cd	-0.24679871
126	0xbdb79c38	-0.08965343
127	0xbebfc5b3	-0.3745552
128	0x3dcae0c8	0.09906155
129	0xbe8d7bd5	-0.2763354
130	0xbe0b4ece	-0.1360428
131	0xbd848da4	-0.06472328
132	0x3a597c2b	0.00082963955
133	0x3d3cea3f	0.046121832
134	0xbcfa3f33	-0.030547714
135	0x3c09fbca	0.008421848
136	0xbe3755a6	-0.17903766
137	0x3cf8db27	0.030377937
138	0x3db55193	0.0885345
139	0x3e925bfa	0.28585798
140	0x3e519a2d	0.2046897
141	0x3e11b280	0.14228249
142	0xbdc9a912	-0.09846701
143	0xbea5e204	-0.32399
144	0xbd749931	-0.059716407
145	0xbf559d7d	-0.83443433
146	0xbdeff47a	-0.11716552
147	0xbd390db9	-0.045179103
148	0xbdad5d71	-0.08465088
149	0xbe505102	-0.20343402
150	0xbd694e0e	-0.056959204
151	0xbe96694c	-0.2937721
152	0xbc9205f9	-0.017825114
153	0x3e47bca8	0.1950556
154	0x3e2e2ec8	0.17010033
155	0xbf04e351	-0.5190936
156	0x3bfe0203	0.0077517047
157	0xbf307a39	-0.68936497
158	0x3d97baa2	0.07408644
159	0xbe0a34f0	-0.13496757
160	0xbdc0a014	-0.094055325
161	0xbdce446e	-0.10071646
162	0xbdaf9dc2	-0.08575012
163	0xbd7d5b19	-0.061854456
164	0xbea26a52	-0.3172174
165	0x3d2684bb	0.040653925
166	0xbd46e97c	-0.04856251
167	0x3d4df28f	0.05028015
168	0xbe4d8614	-0.20070678
169	0xbdc77d09	-0.097406454
170	0x3e891af4	0.26778376
171	0xbdd25a7d	-0.102711655
172	0x3e5940ef	0.21216176
173	0x3cc4423d	0.023957366
174	0xbdae52b1	-0.08511866
175	0x3dec6a44	0.11543706
176	0x3d3a8d5f	0.04554498
177	0x3a8bcac3	0.0010665286
178	0x3d1e9471	0.038715784
179	0xbca1f8ae	-0.0197719
180	0x3d3ca91c	0.046059713
181	0x3df35514	0.11881462
182	0x3dbf71b3	0.09347858
183	0x3d6d1e21	0.05789006
184	0x3d1dc784	0.03852035
185	0x3df045e6	0.11732082
186	0xbe08b52f	-0.13350366
187	0xbce47a29	-0.027890282
188	0xbd46bf66	-0.048522376
189	0x3d28354a	0.041066445
190	0x3e98b27d	0.29823676
191	0xbdb770cd	-0.08957062
192	0xbedba3b8	-0.42898345
193	0xbe691dba	-0.22765246
194	0xbf833202	-1.0249636
195	0xbd9b735a	-0.07590361
196	0xbe06cdc9	-0.13164438
197	0x3e11e719	0.14248313
198	0xbdf7694b	-0.1208063
199	0x3caaabdb	0.0208339
200	0x3ca871bb	0.020562043
201	0x3e0fa722	0.140286
202	0xbe2587a4	-0.16165024
203	0xbd49edf8	-0.04929921
204	0xbe04c8bf	-0.12967204
205	0x3e237f08	0.15966427
206	0xbd88f141	-0.066866405
207	0x3da7d675	0.08195201
208	0x3e144505	0.14479454
209	0x3dc754a6	0.09732942
210	0x3a92f148	0.0011210823
211	0x3cad5792	0.02115992
212	0x3d3467b1	0.0440442
213	0x3d0e68a0	0.034767747
214	0xbd039cd7	-0.032131996
215	0x3d0eda54	0.034876183
216	0xbd54de16	-0.05196961
217	0xbdba71f9	-0.0910377
218	0x3d56d78b	0.05245165
219	0x3cd1368e	0.025538709
220	0xbcb9eb23	-0.02269513
221	0x3dc17ea3	0.09447982
222	0xbe1a2098	-0.15051496
223	0x3e0644f2	0.13112238
224	0x3d765f51	0.060149495
225	0xbe38e965	-0.18057783
226	0x3d534c81	0.05158663
227	0xbaec38ec	-0.0018022335
228	0xbd9aeec5	-0.07565073
229	0xbd815d56	-0.063166305
230	0x3dd311d9	0.103061385
231	0x3e347a60	0.17624807
232	0x3e1c11f2	0.1524122
233	0x3e45edfd	0.19329067
234	0xbe3084c0	-0.1723814
235	0xbcceda4f	-0.025250582
236	0x3cf26b2a	0.029592115
237	0xbec11111	-0.37708333
238	0xbd6e95cb	-0.058248322
239	0x3ead17e7	0.338073
240	0xbe1b5028	-0.15167296
241	0x3dd65ba8	0.10466701
242	0xbe0aa454	-0.13539249
243	0xbccea287	-0.025223983
244	0x3e187120	0.14886904
245	0x3dc8c79d	0.09803698
246	0xbdf1d1ef	-0.1180762
247	0xbe0e0c23	-0.13871817
248	0xbe0085e7	-0.1255108
249	0x3d5be27b	0.053682785
250	0xbdaf9115	-0.08572594
251	0xbdaa7cef	-0.083246104
252	0x3e4bd80f	0.19906639
253	0xbd7db2c6	-0.06193807
254	0xbd7e9931	-0.062157813
255	0xbe03f1c8	-0.12885201

fc1.bias f4 [64]
0	0x3e1c4013	0.15258817
1	0xbc8b0c6f	-0.016973702
2	0xbdb61c56	-0.088921234
3	0xbdcffe08	-0.101558745
4	0x3e10c811	0.1413882
5	0xbc00cf98	-0.007861994
6	0xbd1cf822	-0.038322575
7	0x3d8fcd7a	0.070216134
8	0x39cad54b	0.00038687358
9	0xbe22cca9	-0.15898384
10	0x3d4a0b0c	0.04932694
11	0x3e1a14e4	0.15047032
12	0x3e328856	0.1743482
13	0x3db03dd4	0.08605543
14	0xbd566293	-0.0523401
15	0xbd1c06ad	-0.038092304
16	0x3dbdc27b	0.0926561
17	0xbc139cd3	-0.009009558
18	0x3ccdad78	0.02510713
19	0xbe2293dc	-0.15876716
20	0xbd937956	-0.07200877
21	0x3e12bcb9	0.14329804
22	0xbbc656b4	-0.0060528163
23	0xbd9a219b	-0.07525941
24	0xbe27eefa	-0.16399756
25	0x3e5d1143	0.21588616
26	0xbd97edc9	-0.07418401
27	0xbde489f3	-0.11159124
28	0x3e1f82d3	0.15577249
29	0x3e008def	0.12554143
30	0xbdc4f2c6	-0.09616618
31	0xbe3d5978	-0.18491161
32	0x3e1249ad	0.14285918
33	0x3be78472	0.0070653493
34	0xbe02298c	-0.12711161
35	0x3dd1a17f	0.10235881
36	0xbbceb0b8	-0.0063076876
37	0x3cf9d13f	0.030495284
38	0xbc711892	-0.014715331
39	0xbd6bc780	-0.057563305
40	0xbd572f1a	-0.052535154
41	0x3ca90061	0.020630063
42	0xbd7e7d92	-0.062131472
43	0x3df7d8cf	0.121019
44	0x3c73742c	0.0148592405
45	0xbcb249c1	-0.021763684
46	0x3c9961cb	0.01872339
47	0xbe315279	-0.17316617
48	0xbe0e01ca	-0.1386787
49	0x3d62d1bb	0.055375796
50	0xbe394d59	-0.18095912
51	0x3db1e1e6	0.08685665
52	0xbd38525e	-0.045000426
53	0xbd44a238	-0.048006266
54	0xbe4d566e	-0.20052502
55	0xbd109eb0	-0.035307586
56	0x3e41a7f8	0.18911731
57	0xbd9ba647	-0.07600074
58	0xbdd1ebb6	-0.102500364
59	0xbe1a8bd5	-0.15092404
60	0x3ce99dec	0.028517686
61	0x3d9acdbb	0.07558771
62	0x3d879a53	0.06621232
63	0x3d7fb4fb	0.062428456

fc2.weight f4 [64, 64]
0	0x3dce7b30	0.1008209
1	0x3dbddceb	0.092706524
2	0xbd8941d5	-0.067020096
3	0x3e3e7d90	0.18602586
4	0x3bccace0	0.0062461942
5	0x3da08e2a	0.07839616
6	0xbec60ddc	-0.3868245
7	0x3c661a11	0.014044301
8	0x3c8ed83d	0.017437095
9	0x3e025c0f	0.1273043
10	0x3dea189b	0.11430474
11	0xbe057b4a	-0.13035312
12	0x3c2af0ed	0.010433418
13	0x3e02d522	0.12776616
14	0x3da607e5	0.081069745
15	0xbe02bf0d	-0.12768193
16	0x3baad766	0.005213666
17	0xbe2a9d6d	-0.16661616
18	0xbd565253	-0.052324604
19	0xbe72bb34	-0.23704225
20	0xbc341867	-0.010992146
21	0xbb3c283b	-0.0028710503
22	0x3e838131	0.25684503
23	0x3d9a0f6d	0.075224735
24	0xbd08e70b	-0.033423465
25	0xbd0e8be4	-0.03480138
26	0x3e0d7fb7	0.1381825
27	0x3e9763ee	0.29568428
28	0xbd28a5c4	-0.04117371
29	0x3d0f56ae	0.034994774
30	0x3e511ceb	0.20421188
31	0xbd228b4f	-0.039683636
32	0x3df3a7f6	0.118972704
33	0x3d13f257	0.036119785
34	0xbc3899e9	-0.011267164
35	0xbd891fb7	-0.06695502
36	0x3c8ab93c	0.01693403
37	0x3e184304	0.14869314
38	0x3e71ae3a	0.23601618
39	0xbdb47663	-0.08811643
40	0x3d05748c	0.03258185
41	0x3ded1f77	0.11578267
42	0x3e5b312b	0.21405475
43	0x3d15d581	0.036580566
44	0x3daa2b07	0.08308988
45	0x3d4063d7	0.046970215
46	0xbd315ae8	-0.043299586
47	0x3de0e926	0.109819695
48	0xbc0f4801	-0.008745194
49	0x3d71f1f2	0.059068628
50	0xbc98618f	-0.018601207
51	0xbd1b1eee	-0.037871294
52	0xbe0e35c6	-0.138877
53	0xbe3bbbf2	-0.18333414
54	0xbcd79e9b	-0.026320746
55	0xbb470ced	-0.0030372695
56	0x3d6f4721	0.058417443
57	0xbd7378d7	-0.059441414
58	0xbe114d44	-0.14189631
59	0xbe0be854	-0.13662845
60	0x3e065c91	0.13121249
61	0x3e57f99f	0.21091317
62	0xbe1ecf20	-0.155087
63	0x3da3b999	0.07994384
64	0xbc90bde0	-0.017668664
65	0x3deb70b4	0.11496106
66	0x3da7ec75	0.081993975
67	0x3d0ebffc	0.03485106
68	0x3e1ef9ce	0.1552498
69	0x3dd84367	0.10559731
70	0xbce255cd	-0.027628804
71	0x3e418b7b	0.18900864
72	0xbcc7525f	-0.02433127
73	0xbc9b6903	-0.018970972
74	0xbd6c990f	-0.057763156
75	0x3e39b988	0.18137181
76	0xbe94e9e4	-0.29084694
77	0x3dd34c11	0.10317243
78	0xbcb21bd2	-0.021741781
79	0x3e5d5675	0.21615012
80	0x3dd24225	0.10266522
81	0x3d747b5a	0.05968795
82	0x3d176a95	0.03696688
83	0x3d96276c	0.07331738
84	0x3d47c47a	0.04877136
85	0xbdca3a50	-0.098744035
86	0xbc6ac47b	-0.014329071
87	0xbd26ac36	-0.040691577
88	0xbd0c1c8b	-0.03420691
89	0x3e0162aa	0.12635294
90	0xbdadc32b	-0.08484491
91	0xbd990d85	-0.07473282
92	0x3d2b2871	0.041786615
93	0xbe270bb9	-0.16313066
94	0x3e2a6b81	0.16642572
95	0xbd6d8be3	-0.057994734
96	0xbe01c3eb	-0.12672393
97	0x3d5471c0	0.051866293
98	0x3b791d41	0.0038011821
99	0x3db4c9e2	0.088275686
100	0xbc71e121	-0.014763148
101	0x3df9c884	0.121964484
102	0x3e4ae498	0.19813764
103	0xbd81510e	-0.06314288
104	0x3d06d62b	0.03291909
105	0xbd6a722c	-0.05723779
106	0xbbeacdeb	-0.0071656606
107	0xbdc2c3a3	-0.09509971
108	0xbc5e53ad	-0.013569755
109	0xbda3a583	-0.07990553
110	0xbe13187a	-0.14364806
111	0xbd8733bf	-0.06601667
112	0xbd3435ef	-0.043996748
113	0xbaf07873	-0.0018346444
114	0x3da82c2f	0.08211552
115	0x3e0f87c2	0.14016631
116	0xbda89110	-0.082307935
117	0xbd9cd380	-0.07657528
118	0xbce6204c	-0.028091572
119	0x3d104314	0.03522022
120	0xbca9704f	-0.020683436
121	0x3c268d5c	0.010165539
122	0x3e31487b	0.17312805
123	0x3e1090ec	0.14117783
124	0xbdc8e437	-0.098091535
125	0x3dd8a369	0.10578043
126	0xbd316e47	-0.04331806
127	0xbdda35e6	-0.106548116
128	0xbe57ca62	-0.21073297
129	0xbe1af573	-0.15132694
130	0x3d2f3be2	0.042781718
131	0x3e629048	0.22125351
132	0x3d62247e	0.055210583
133	0x3ceece2b	0.029151043
134	0xbcf02fd6	-0.029319685
135	0xbd9c7582	-0.076396
136	0x3e07f09d	0.1327538
137	0x3c86276a	0.016376216
138	0x3d556a69	0.052103434
139	0xbd9f56f1	-0.07780255
140	0x3e56638f	0.20936416
141	0xbc81dc62	-0.015852157
142	0x3d98b2a9	0.07455952
143	0xbdec3ba3	-0.11534812
144	0xbdb86c2c	-0.09005007
145	0x3dbb66c2	0.09150459
146	0x3df2f45e	0.118630156
147	0xbd388e40	-0.045057535
148	0xbd7cbf78	-0.061706036
149	0x3d93b8d9	0.07212991
150	0xbe008296	-0.12549815
151	0xbdbe7048	-0.0929876
152	0xbe7cb8c2	-0.24679855
153	0x3e301d1e	0.17198607
154	0x3e3e65e9	0.18593563
155	0xbc1b7380	-0.009487987
156	0xbd55a176	-0.052155934
157	0x3e317add	0.17332025
158	0xbd434723	-0.047675263
159	0x3b2ec3b8	0.002666695
160	0xbe630285	-0.2216893
161	0x3bdaa8ca	0.0066729533
162	0xbdfff17b	-0.124972306
163	0x3df66c4b	0.12032374
164	0x3dd1ae37	0.10238307
165	0x3ea4d46a	0.3219331
166	0x3d6f19db	0.058374267
167	0x3e45aee0	0.19304991
168	0x3e158351	0.14600874
169	0xbe89b401	-0.26895145
170	0xbcd1307d	-0.025535816
171	0xbe579cc2	-0.21055892
172	0xbe0201a5	-0.1269594
173	0xbc4943cf	-0.012284233
174	0x3d98c430	0.07459295
175	0xbcb141db	-0.021637848
176	0xbd2b5822	-0.041832097
177	0xbea80ede	-0.32823843
178	0xbd0e19fe	-0.034692757
179	0x3db60b11	0.088888295
180	0xbe375f97	-0.17907558
181	0xbe4e6a69	-0.2015778
182	0xbe78f5f4	-0.24312574
183	0xbb8a340a	-0.0042176293
184	0xbca94712	-0.020663772
185	0xbe12fd7b	-0.14354508
186	0x3cdbfbaf	0.02685341
187	0xbd54b32b	-0.05192868
188	0xbe0737c8	-0.13204873
189	0xbce7c743	-0.028293258
190	0x3e31208f	0.17297576
191	0x3e2c1bd1	0.16807486
192	0xbe60130d	-0.21882267
193	0xbd05ac47	-0.032635
194	0x3df1918c	0.11795339
195	0xbdc8269d	-0.0977299
196	0x3dd3cbe2	0.10341622
197	0x3e13a91b	0.14419977
198	0xbba5e5c5	-0.005062791
199	0xbde384c6	-0.11109309
200	0xbd1067ef	-0.03525537
201	0x3d027ee3	0.03185929
202	0x3cbf3469	0.02334042
203	0x3e6477ba	0.22311297
204	0xbbf46846	-0.0074587194
205	0x3da874b8	0.08225387
206	0xbd0c0760	-0.03418672
207	0xbe02b936	-0.12765965
208	0xbd484a99	-0.048899267
209	0xbd3820c2	-0.044953115
210	0xbc209aa8	-0.009802498
211	0x3c8d221f	0.017228184
212	0x3de024d1	0.10944522
213	0x3cfce893	0.030872619
214	0xbe619d5d	-0.22032686
215	0xbd4c3a13	-0.04986007
216	0x3e84703d	0.2586688
217	0xbe07f9bc	-0.1327886
218	0x3dd47810	0.103744626
219	0xbbabea84	-0.0052464623
220	0x3e085bfc	0.13316339
221	0xbd941474	-0.072304636
222	0x3cea2169	0.028580384
223	0x3de1b8b8	0.110215604
224	0xbe19b03c	-0.15008634
225	0x3d1cfa6a	0.03832475
226	0xbd8ed4cf	-0.06974184
227	0x3e3e6850	0.1859448
228	0xbe6dd899	-0.23227157
229	0x3e1d7d6d	0.15379877
230	0x3e2d5618	0.16927373
231	0xbc512c8b	-0.0127669675
232	0x3d761a86	0.06008389
233	0x3e0a5b1c	0.13511318
234	0xbd669d34	-0.056302264
235	0xbd8abd16	-0.067743465
236	0x3d9342d6	0.07190482
237	0x3e2908e2	0.16507295
238	0xbdd00d69	-0.10158808
239	0xbd392492	-0.04520089
240	0xbd86be79	-0.065792985
241	0x3e4603c3	0.19337372
242	0xbe8a0f88	-0.26964974
243	0x3c3db3b6	0.011578491
244	0x3d85ea3f	0.065388195
245	0x3c6c0fe1	0.014408083
246	0xbead0b19	-0.3379753
247	0x3b87d1a4	0.004144864
248	0xbdd75dc6	-0.10515933
249	0xbe098bbe	-0.13432214
250	0xbd38602b	-0.045013588
251	0x3e31aa8c	0.17350215
252	0xbe4bee20	-0.19915056
253	0x3d405f46	0.04696586
254	0x3d3b3010	0.045700133
255	0x3c4beb9c	0.01244631

fc2.bias f4 [64]
0	0x3d77bbb8	0.060481757
1	0x3d0dba64	0.034601584
2	0x3e055ce4	0.13023716
3	0x3cd8acee	0.026449647
4	0x3e2b9513	0.16756086
5	0xbe078bf3	-0.1323698
6	0xbdbef094	-0.093232304
7	0x3cfc530f	0.030801324
8	0x3d69e27e	0.057100765
9	0x3de9ce8b	0.11416348
10	0xbd56fb68	-0.052485853
11	0x3e5b02b2	0.21387747
12	0x3e0d0313	0.13770704
13	0xbd1fa25c	-0.038973197
14	0xbd83cc3d	-0.0643544
15	0xbc685b2a	-0.014181891
16	0x3d1d7f47	0.03845146
17	0x3d76ccdc	0.060253963
18	0x3cfea616	0.031085055
19	0x3dda5465	0.10660628
20	0x3d9bbabb	0.076039754
21	0x3e7bcc6a	0.24589697
22	0xbe4175cf	-0.18892597
23	0xbdd6e235	-0.10492364
24	0xbe0450f8	-0.12921512
25	0xbe0befb3	-0.13665657
26	0x3db39185	0.0876799
27	0xbcba9431	-0.022775741
28	0xbdc20899	-0.09474296
29	0x3da18c27	0.0788806
30	0x3d096013	0.03353889
31	0xbdd43acb	-0.10362776
32	0xbd0a4933	-0.033761214
33	0x3d60377b	0.05474041
34	0x3da1caaa	0.07899983
35	0xbc891058	-0.016731426
36	0xbdeaa0a1	-0.11456419
37	0xbdbcc89a	-0.09217949
38	0x3de77eda	0.11303492
39	0xbdcd0203	-0.10010149
40	0xbe0bc8e6	-0.13650855
41	0x3e80816f	0.2509875
42	0x3e242f2c	0.1603362
43	0x3d0129f6	0.031534158
44	0x3d8aa1cf	0.06769144
45	0xbc4926db	-0.01227733
46	0xbd14ceb9	-0.03632996
47	0xbdc9e56e	-0.09858213
48	0x3d8e48f5	0.06947509
49	0xbe292f5f	-0.16521977
50	0xbe11bdb0	-0.14232516
51	0x3dd1bcc4	0.10241082
52	0xbdffd9be	-0.12492703
53	0x3ca5663e	0.020190354
54	0xbce799ae	-0.028271522
55	0xbcc2ec2f	-0.023794262
56	0xbe318993	-0.17337637
57	0xbdf7785f	-0.12083506
58	0xbc7dd3db	-0.015492405
59	0xbd46308e	-0.04838615
60	0x3d042b6d	0.032267977
61	0x3e4c77bf	0.19967555
62	0x3ddaa7be	0.106765255
63	0xbe173f8e	-0.14770338

fc3.weight f4 [4, 64]
0	0x3ce7d9e6	0.028302144
1	0x3e04074b	0.12893407
2	0x3dee53eb	0.116371
3	0xbe08f277	-0.13373743
4	0x3e6ae024	0.22937065
5	0xbc65331d	-0.013989237
6	0x3ea693c8	0.32534623
7	0xbeb78e3a	-0.35850698
8	0x3e9bdd9e	0.30442518
9	0x3e0cf306	0.13764581
10	0xbdbe8df2	-0.09304418
11	0x3e6dbda0	0.23216867
12	0x3d4e0bb4	0.05030413
13	0x3e9e080f	0.30865523
14	0xbe747b93	-0.23875265
15	0xbd97f034	-0.07418862
16	0xbea378fe	-0.31928247
17	0x3e752045	0.23938091
18	0x3cd9e9cd	0.026600743
19	0x3dd89d3e	0.105768666
20	0x3e904277	0.2817571
21	0x3d8990c6	0.067170665
22	0x3bdc1ca2	0.0067172805
23	0xbe3a746a	-0.18208471
24	0xbe090e53	-0.1338437
25	0xbddb56d5	-0.10709921
26	0xbe4341e0	-0.19068098
27	0x3a6e1d4d	0.00090833456
28	0xbe3bd449	-0.18342699
29	0x3e0d9a2f	0.13828348
30	0xbe3df006	-0.18548593
31	0x3e85aa1c	0.26106346
32	0x3e2ef09b	0.17083971
33	0x3e7da627	0.24770413
34	0x3dd4771f	0.10374283
35	0x3dafd1ae	0.08584915
36	0x3eabac3b	0.3352984
37	0xbebf0bfd	-0.37313834
38	0x3d45d13b	0.04829524
39	0x3dc6a5e2	0.096996084
40	0x3dbce785	0.09223846
41	0x3dab21a5	0.083560266
42	0x3d928d1c	0.07155821
43	0x3d811868	0.06303483
44	0x3e435ec3	0.19079117
45	0x3eaa14ee	0.33219093
46	0x3de1b437	0.110207014
47	0x3dc68fde	0.09695409
48	0xbd7231a6	-0.05912938
49	0x3e1eaf63	0.15496592
50	0xbdf2dbef	-0.11858355
51	0x3e3abb2d	0.18235464
52	0x3dc3bdbc	0.09557673
53	0xbedc63a4	-0.4304477
54	0xb9dbd6f3	-0.00041931085
55	0x3d66b1f7	0.056322064
56	0xbe36670f	-0.17812751
57	0x3d6c201b	0.057647806
58	0x3e4599ec	0.19296998
59	0x3ea32381	0.31863025
60	0xbeb305a9	-0.34965256
61	0x3e1eec82	0.15519908
62	0x3e14e461	0.14540245
63	0x3dc9aee0	0.09847808
64	0x3e61c866	0.22049102
65	0x3da31988	0.07963854
66	0x3dfb6217	0.122745685
67	0xbd61faad	-0.055170704
68	0x3da04fb1	0.078277
69	0x3e33e690	0.17568421
70	0x3baa7c3b	0.0052027977
71	0xbe33e7af	-0.17568849
72	0x3c5de88f	0.013544216
73	0xbc1f468e	-0.009721411
74	0xbc49718b	-0.012295137
75	0x3e1ccb5b	0.15311949
76	0xbd47cae2	-0.04877747
77	0x3d0df1c7	0.034654405
78	0x3e04a9fd	0.1295547
79	0xbc0d51f0	-0.008625492
80	0x3d2ca2d7	0.042147484
81	0x3e194dcd	0.14971085
82	0x3d0f8046	0.03503444
83	0x3d6fbc68	0.058529288
84	0x3e85df9b	0.2614716
85	0x3d7684ea	0.06018535
86	0x3c93444c	0.017976902
87	0x3e1acc84	0.15117079
88	0xbd9146b5	-0.070935644
89	0x3dc05ba7	0.09392481
90	0x3accc88a	0.001562373
91	0x3dd916f2	0.106000796
92	0xbdd0c27d	-0.10193346
93	0x3cf6c102	0.03012133
94	0x3da9ec72	0.082970515
95	0x3d063ed9	0.03277478
96	0x3dac041c	0.08399221
97	0xbd820443	-0.06348469
98	0x3e085b5a	0.13316098
99	0x3d76c940	0.06025052
100	0x3d878967	0.06618004
101	0xbe0848b8	-0.1330899
102	0x3e14dad0	0.14536595
103	0x3e3ffd54	0.18748981
104	0x3cadbd79	0.021208512
105	0x3e09b178	0.13446605
106	0xbcde2673	-0.027117943
107	0x3e0d440c	0.13795489
108	0x3d4880d1	0.048950974
109	0x3e29f149	0.16595949
110	0x3e3a4e51	0.18193938
111	0x3dbc90d6	0.09207313
112	0xbc2125cc	-0.009835672
113	0x3e0c7f5e	0.13720462
114	0x3d083346	0.033252023
115	0xbd068bc2	-0.032848127
116	0x3e0ba8c0	0.13638592
117	0xbd125b6a	-0.03573171
118	0x3dd237c2	0.10264541
119	0x3d6bdc6a	0.05758325
120	0xbda6035f	-0.08106112
121	0x3d675c14	0.056484297
122	0xbe760a5b	-0.24027388
123	0x3daf6c01	0.08565522
124	0xbe11e5ba	-0.1424779
125	0x3cb55129	0.022133427
126	0xbdf25284	-0.11832145
127	0x3c0f0f1d	0.008731631
128	0x3d319b1a	0.043360807
129	0xbc8d0896	-0.017216008
130	0x3e5d4af7	0.21610628
131	0x3e71a8c4	0.23599535
132	0x3d80d53c	0.06290671
133	0x3dffeca4	0.124963075
134	0x3dc9422d	0.09827075
135	0xbe6fae15	-0.23406251
136	0xbe147ee7	-0.14501534
137	0xbeb128f7	-0.34601566
138	0xbd857a0c	-0.06517419
139	0x3de1355e	0.10996507
140	0x3e25cfda	0.1619257
141	0xbeabefc0	-0.33581352
142	0xbe514044	-0.20434672
143	0x3e92f191	0.28699926
144	0x3e8adecd	0.27123109
145	0x3cec93dc	0.028879099
146	0xbdbff157	-0.09372204
147	0xbd5f8e16	-0.054578863
148	0xbdc019af	-0.09379899
149	0x3e422ef5	0.18963225
150	0xbec2c2c8	-0.3803923
151	0x3c4bccc2	0.012438955
152	0x3e9a334c	0.3011726
153	0x3d336f9a	0.043807603
154	0xbe94ed49	-0.29087284
155	0xbedd0bcd	-0.43173066
156	0xbc926d35	-0.01787434
157	0x3e5ffc77	0.21873651
158	0xbe2ce3ef	-0.16883825
159	0xbde27d22	-0.110590234
160	0xbd6d3de7	-0.057920363
161	0xbd1a5eab	-0.03768794
162	0x3e8fb446	0.28067225
163	0x3ed0061d	0.40629664
164	0xbe0b7b00	-0.1362114
165	0xbdc5719c	-0.0964081
166	0x3dc0c164	0.09411886
167	0x3d0eed38	0.0348942
168	0xbec54372	-0.3852802
169	0x3e2edda7	0.17076741
170	0x3e0fcb35	0.14042361
171	0xbc089743	-0.008336845
172	0x3826c46e	3.9760424e-05
173	0x3f0b097e	0.5431136
174	0x3e4394d7	0.19099747
175	0x3e4c5693	0.199549
176	0x3e966a34	0.29377902
177	0x3e1c5fee	0.1527097
178	0x3cf317b6	0.029674392
179	0x3ed9ae1a	0.4251564
180	0xbe0d51ed	-0.13800783
181	0x3d3b5b5a	0.045741417
182	0xbe05b2b8	-0.13056457
183	0x3e5d2108	0.21594632
184	0xbc6c957c	-0.014439937
185	0x3e2660d7	0.16247879
186	0x3d21565f	0.03938901
187	0x3e091895	0.13388284
188	0xbec768d4	-0.38947165
189	0x3daae6e9	0.08344824
190	0xba63accc	-0.00086851115
191	0xb9c4da3f	-0.0003754664
192	0x3df45c68	0.119316876
193	0x3d8310ba	0.06399675
194	0x3d9381d5	0.07202498
195	0xbe2b004b	-0.1669933
196	0xbe049db8	-0.1295079
197	0x3e9b7348	0.3036139
198	0xbe714f56	-0.2356542
199	0xbe1d926c	-0.15387887
200	0x3e695b35	0.22788699
201	0x3e82f9b1	0.25581124
202	0x3f03f29f	0.51542085
203	0x3c00da06	0.007864481
204	0x3dae0234	0.08496514
205	0xbddeff20	-0.10888505
206	0x3db1baf5	0.08678237
207	0xbd8a96a6	-0.06767015
208	0x3e953fe1	0.29150298
209	0x3e1f52c7	0.15558921
210	0x3ec11839	0.37713793
211	0x3de67425	0.112526216
212	0xbe738a3d	-0.23783202
213	0x3e1a4ecd	0.15069123
214	0xbbc59c09	-0.0060305637
215	0x3e46a167	0.19397508
216	0x3d32a80b	0.04361729
217	0xbe79af5a	-0.24383298
218	0xbe516957	-0.2045034
219	0xbd5a988e	-0.053368144
220	0xbe5fde9c	-0.21862262
221	0xbe49ba74	-0.19700032
222	0xbe8a2f1e	-0.26989073
223	0x3e6b5126	0.22980174
224	0x3ed78a77	0.42097828
225	0x3ec6e47a	0.3884619
226	0xbe2af75a	-0.1669592
227	0xbdfbc152	-0.12292732
228	0x3d73d8ff	0.059533115
229	0x3e2ea238	0.17054069
230	0x3e726fbc	0.23675436
231	0x3d495f9f	0.049163457
232	0xbe8077b2	-0.2509132
233	0x3e2c97a4	0.16854721
234	0x3d6caa8b	0.05777983
235	0xbea5d8b7	-0.32391903
236	0x3eb86e32	0.36021572
237	0xbe36ad2f	-0.17839502
238	0x3cb99b10	0.022656947
239	0xbebf40bf	-0.37354085
240	0x3df9cd31	0.1219734
241	0xbe223678	-0.1584109
242	0x3e0b1596	0.13582453
243	0x3d92ab84	0.0716162
244	0xbdf71394	-0.12064281
245	0xbe249094	-0.16070777
246	0x3e8efe6c	0.27928483
247	0x3ebd9c7f	0.3703346
248	0xbe4a1d7a	-0.19737807
249	0xbe45861b	-0.19289438
250	0xbe297f0d	-0.16552372
251	0xbdd7dc08	-0.105400145
252	0xbe52ef0d	-0.20599003
253	0x3dbe5c24	0.09294918
254	0xbe705ff7	-0.23474108
255	0xba6a4600	-0.00089368224

fc3.bias f4 [4]
0	0x3e57205a	0.21008435
1	0x3de4702f	0.1115421
2	0x3cbce72a	0.023059446
3	0x3d89f0db	0.06735393
